weights/checkpoint-000020.pth.tar (torch, 252284 bytes, 10 tensors)

conv1.weight f4 [6, 3, 5, 5]
00000000: cb48 0fbe 34aa 00be 1ecb f3bd 383b 09be
00000010: bf8a 13be f705 94be b3b6 85be 69bb 9fbe
00000020: 72b1 5cbe 0c99 fdbd af94 91be c5dc c0be
00000030: 245f 38be 4fcd 96be 27db e8bd 4ccf febd
00000040: 669e 8abe 17dd e7bc 15c6 cd3b 6b10 01be
00000050: 4d6b 2fbd e971 113d 4947 323e fdc3 903d
00000060: 2bd3 0a3d a28b f33d ae85 29bd 2ef5 0a3d
00000070: c930 5abc 75ba e0bd c836 853d 37c3 a63d
00000080: e239 903d 2dca 1f3e 1cd8 bcbd cf8f cb3d
00000090: dc7b f73d 4ab2 0a3e 9245 203e 50d1 923d
000000a0: 292c 933c 2b6b b13d 4b9e 6bbd 4993 1bbd
000000b0: 8609 95bc 4a5d d9bb c227 ffbc 94b2 cfbd
000000c0: 5c62 17be 5a50 21be 32d2 053d 3f9e c73d
000000d0: 62f2 613e cffe 003e 981f 463e 9fe6 213e
000000e0: 2bcb 383e 108f 703e 9d77 4c3e 7265 5c3e
000000f0: 4dea 103e dc34 4e3e 356d 923e d65b 473e
00000100: 3937 213e beed 823c bdd1 fb3d 815a e63c
00000110: 3bbf 0f3d ec8c 103e 76d9 853d a233 253d
00000120: 1fe4 5cbb f913 043e c3b8 ab3d fadd 533d
00000130: a3c2 d23c b830 243c 4d01 44bd fe21 95bc
00000140: 45f7 cdbd 0fad b0be d079 be3e 6164 143e
00000150: e4f1 51be 80f0 0dbf 9908 a0be 9716 3c3f
00000160: a061 d73d 7efe 94be 41da 99be 5b18 c0be
00000170: 5723 c13e 68cb 8d3e f584 f83d af58 b63d
00000180: 930c 12be 3c3b c2bd d03d dbbd f049 11bd
00000190: 2cb7 023d 8980 17be 1aa9 823d 3e88 e73d
000001a0: 6b56 4e3b e1a9 5bbe a273 18be fb5f cb3e
000001b0: a164 c93c 794e 16be 6879 f0be c3be c4be
000001c0: cc89 3e3f e425 933e 9467 d9bd 89c4 7dbe
000001d0: 73b5 ddbe 1245 8d3e fcdb 053e 97f6 da3c
000001e0: 6a4c 073e d13f e6bd 53e2 44bd dc81 4fbc
000001f0: b05c 763d 12bf acbb 8c9b bbbc ca0b 3ebd
00000200: f1a4 e83b ce17 2dbd bf84 cfbd a2a0 2ebe
00000210: 7392 ee3e 1fb6 2abc b17e c9bd 1e76 c3be
00000220: 4613 9abe 3d22 3e3f 981b 413e 7a26 9dbe
00000230: 3329 2bbe 1d0b 9abe 095a c53e 2f9f 713e
00000240: ea38 4a3d 80ea 0a3e a496 a1bd 93d5 a93d
00000250: 5859 b5bd 1cce 1f3e c326 0a3d 97ce c93b
00000260: 68e3 e73d ac15 153d ffa1 933d 7f6b 5dbd
00000270: 07f1 283d adc0 4b3d b530 993d 185c 193e
00000280: 60be d4bd 0e6a c2bd 276f 543d 0606 1e3e
00000290: 9a33 af3d e3e7 21bd 5e58 f5bd 971f b5bd
000002a0: c756 9dbc b631 943d 9d08 d3bd 1268 8abd
000002b0: 9d4d 17be 9e35 8abd f28a ebbd 1f51 4c3a
000002c0: 4e5d 9fbd 1b2c fc3d 033f 1dbd 6b07 02bd
000002d0: bf34 15be 14e2 34be d27b 07be 734f 09be
000002e0: 19dd 0fbd 2bc4 4bbe 3f70 7bbe c49f 29be
000002f0: 3a0d debd c7d1 a7bd 1cfd edbb d14c 54be
00000300: 3aad 32be 0ca6 39be 9835 4d3d a102 32be
00000310: 6f95 94be a008 94be 7207 a6be 1c53 1fbe
00000320: 53c6 b03d 456e 533e 02dd 643e 8749 d03d
00000330: 20de 293d f32e 1dbd 6404 cd3d c28d b1bd
00000340: 6328 d8bd 36a0 1ebd 8c22 323e db88 af3d
00000350: bc40 2ebd 4aab 233d 509c 07bd 8cf2 773e
00000360: 9ad4 d0bd be3d 13be 1682 c4bd c3d0 9ebc
00000370: 868a 3d3e 1db2 23bd 27f6 07be b020 71be
00000380: 6b8d c1bd e329 813e 16eb 913d 09c0 2c3e
00000390: ec09 d13d 38c5 8f3e a970 223e c00b 27be
000003a0: af6e 273d ba36 923e 8b74 323e 4360 1bbd
000003b0: 2ceb 94be 2ca1 123e c66d bf3e 17ed ce3d
000003c0: 9bc6 bebd 1bc4 85be 025a 073e 0dcc a53e
000003d0: 1122 973d f59a d9bd 1004 3fbe 4b4c 0e3e
000003e0: 7578 403e b790 9ebd fa55 10be c556 a4be
000003f0: c753 bfbe aff2 64bd 6a0d 71bc dfba b1bd
-0.13992612 -0.12564927 -0.11903976 -0.13401496 -0.14408396 -0.289108 -0.2611595 -0.3119767
-0.21552065 -0.12382707 -0.2843375 -0.37668434 -0.18005043 -0.29453513 -0.11369925 -0.124418825
-0.27073973 -0.028303666 0.0062797167 -0.12603919 -0.04282694 0.035509024 0.17410006 0.07068632
0.03389279 0.11891867 -0.041387253 0.033925228 -0.013317295 -0.10973064 0.06504589 0.08142703
0.0704229 0.15604468 -0.09220907 0.09939539 0.12084171 0.13544574 0.15651539 0.071688294
0.017965393 0.08663019 -0.057524007 -0.03798226 -0.018193018 -0.0066334354 -0.031146888 -0.10141483
-0.14783615 -0.15753308 0.03267116 0.0974698 0.22065118 0.12597202 0.1934799 0.15810631
0.18046252 0.23492074 0.19967504 0.21523073 0.14151879 0.20137352 0.28598943 0.19468626
0.15743722 0.015982505 0.12295864 0.028119328 0.03509448 0.14116257 0.06535618 0.040332444
-0.0033705307 0.12898244 0.0838485 0.051725365 0.025727576 0.010021381 -0.047852803 -0.018204685
-0.100569285 -0.34507033 0.3720231 0.14491417 -0.2050243 -0.554451 -0.3125656 0.7347197
0.10516667 -0.29100412 -0.30049327 -0.37518582 0.37722275 0.2769425 0.121347345 0.08903634
-0.14262609 -0.09483954 -0.10705149 -0.035470903 0.031912968 -0.14795126 0.0637991 0.11305283
0.0031484615 -0.21451522 -0.1488786 0.39721665 0.024584116 -0.14678372 -0.46967626 -0.3842679
0.7442901 0.28739846 -0.10615459 -0.24782003 -0.43302497 0.2759176 0.13072199 0.026728911
0.13212743 -0.11242641 -0.048067402 -0.012665238 0.060146987 -0.005271801 -0.022901319 -0.04639796
0.0070997407 -0.04225903 -0.10132741 -0.17053464 0.46596107 -0.010419398 -0.098386176 -0.38176054
-0.3009283 0.74270993 0.18858182 -0.30693418 -0.16714935 -0.30086604 0.38545254 0.2359588
0.049370684 0.13566017 -0.078900605 0.08292689 -0.088549316 0.15605968 0.033728372 0.0061586606
0.11322671 0.03639762 0.07208633 -0.054057594 0.041245487 0.049744297 0.07479993 0.14976537
-0.10387874 -0.094928846 0.051863816 0.15431985 0.08554764 -0.039527785 -0.11979745 -0.08843916
-0.019206418 0.07236044 -0.10304377 -0.06758131 -0.14775701 -0.06748508 -0.11501111 0.00077940704
-0.07781468 0.123131 -0.03839017 -0.031745356 -0.14570902 -0.17664367 -0.13230827 -0.13409214
-0.035122965 -0.19899051 -0.24554537 -0.16564852 -0.108423665 -0.08194309 -0.007262839 -0.20732428
-0.17448893 -0.18129748 0.05009994 -0.17383815 -0.2902026 -0.2891283 -0.32427555 -0.15559047
0.08631577 0.20647533 0.22349933 0.10170274 0.0414716 -0.038374852 0.10010603 -0.08669616
-0.10554578 -0.038727008 0.17395991 0.08571025 -0.042542204 0.039958276 -0.033108056 0.24213618
-0.101968005 -0.14379022 -0.095951244 -0.019386655 0.18509874 -0.039964784 -0.13277493 -0.23547626
-0.094508015 0.2522727 0.07124917 0.1687013 0.102069706 0.28080153 0.15863289 -0.16313076
0.04087704 0.28557378 0.1742727 -0.0379336 -0.29085672 0.14319295 0.37388438 0.10103815
-0.09315225 -0.2612618 0.13217929 0.3238224 0.073795445 -0.10625259 -0.18653893 0.13896291
0.1879595 -0.07742446 -0.14095297 -0.3209745 -0.37368605 -0.055895504 -0.014712671 -0.08678221

conv1.bias f4 [6]
00000000: 68cc 663f 7e90 d43e 2b6a 44bd 79c3 c0bc
00000010: 9f5f 563f 9363 38be
0.9015565 0.4151649 -0.047952812 -0.023530709 0.83739656 -0.18006735

conv2.weight f4 [16, 6, 5, 5]
00000000: dac0 363e 2232 973d 522e 29bd 589d ca3d
00000010: 0782 d53d 3ef6 cc3d cd09 593d 6b9f 3f3d
00000020: fd05 c0bc db0b fc3d a23f 223d d94a 803d
00000030: 13a1 123d 1fe0 0f3d 3550 a63d 3e68 c43d
00000040: 8ef0 c23b beb1 0a3d adff 933d 9572 353e
00000050: 5670 873e 52b7 3d3e 3288 b13d 47b1 6b3e
00000060: 32e9 b03e bf92 1fbd 621e 4bbd 37f4 61bd
00000070: 22c6 90bc 1d14 2e3d aa0f c03b d87d 113c
00000080: 2649 34bd 754e 823c da81 be3b dd45 7a3c
00000090: 1171 0bbd f088 cb3c da84 3dbb b662 733d
000000a0: 4f0a 9bbd c568 c7bb 5eb9 2b3d 4531 d53d
000000b0: 95e0 913d 6ed5 ed3c 5ff1 833c 0744 263e
000000c0: 1eb3 d93d 2fdf 1b3d 4213 53bd 9873 07bd
000000d0: 669f efbc 0cd0 3abd e982 c5bc 1f04 89bd
000000e0: 01eb b43a 46b4 eebd 075b 81bd 658d 90bd
000000f0: faec a03c 826b 3a3a 3762 4cbd bd33 483d
00000100: 82c6 d73c 9e07 93bd 817d afbc ba82 563c
00000110: c4c2 923d 4b62 bd3b cef4 28bc 01e5 d1bd
00000120: 7356 fa3b 3c47 3d3c da5e 1b3d 7ea2 2abd
00000130: 3472 ccbc 42c8 b0bc ecb4 63bb b53f dc3a
00000140: 5c70 143e acf8 29bc 8d2c b93c b512 073d
00000150: 3752 873d 1d46 253d fd18 c03d 7736 6c3d
00000160: c95e 533d 6e00 e7bc 2f23 183d 65ae 1c3d
00000170: 2961 39bd c180 6e3d 53c0 493d e72a d9bc
00000180: 0a40 793d 350e d53d ea8a 373d 33ce 8fbb
00000190: 7e52 3d3e ca22 ab3d 79c4 ce3d 110d ca3b
000001a0: c47e 08bd 4b16 95bd 1531 3a3c 0d03 6b3b
000001b0: dbbe 57bd e520 75bd fec6 093d b76b 96bd
000001c0: 6931 80bd 8f90 123d c148 82bd fdb2 17bc
000001d0: 0715 c2bd c8b9 1ebd 09fa 223d d454 11be
000001e0: 93a8 1d3d 7e3e b13c 7685 7e3d 60ec f5bc
000001f0: 2abd 99bd b929 44bc 45e7 85bd a753 dfbd
00000200: 859b 0dbd a1f2 fbbd 7627 f1bd cd8a 60bd
00000210: 4904 37be f45f bdbd 100b 01be d470 08be
00000220: 8cad fdbd ad69 afbd 8df3 0bbe 72d9 2fbe
00000230: 1f54 59bd ac84 eabd 8836 2dbe 4eb0 c3bd
00000240: 35ce f0bd 346c 1bbe 36f2 adbd d83c 4abe
00000250: aa18 5cbd 2bde f5bd 41bd 27be a3cd 96bd
00000260: d235 213d 662e 2c3e 76ac 653d 01eb 75be
00000270: 0277 063d 9dd4 3e3e a47e 643e 69ed ac3d
00000280: ad93 32be a514 413d 5d10 023e 928f a43c
00000290: f27a 063e 6643 1e3c 5330 5fbb 10ff 84bc
000002a0: 0307 543d c146 ddbc 8eef c4bd ebc6 3ebd
000002b0: 3665 653d f8c8 83bd 1be1 23bd bb57 633e
000002c0: e57c 1f3e 3fbc c93e 0303 3d3e c2b3 0dbb
000002d0: 9656 153e 78c9 d33d 1eec 083e c237 1a3e
000002e0: e51e d43d 865e dd3c 1fc2 283e d9ac 38bd
000002f0: b589 56bd e6d5 003e 655e 8ebd f05d 843d
00000300: b7ef 42be ba82 9bbe 5a68 f6bd 7990 a3be
00000310: ffbe 80be ec5e 3cbe 8ab0 4dbe 911f bfbe
00000320: 48cc 5bbd 90ea 1f3d 4c20 ab3d 0ca5 21bc
00000330: d5e9 123e 2514 b2bd c6f2 7fbd 6082 2abd
00000340: 5614 ec3d 321a 123d e0f7 23be aaa0 cabd
00000350: d5c1 71bd e983 163e 0fb6 063e ee52 9cbd
00000360: da61 d43d 6312 9ebd 1acd b63d 3f03 fa3c
00000370: d77b 733c 7673 3c3d cc97 9f3d 77d1 02be
00000380: da55 afbd 5560 6e3e 813c 723e 88ee 5e3e
00000390: 2310 0d3e e766 e03c 482f 8d3d f605 ca3d
000003a0: e5a1 033e 6ad9 bb3d 2e35 2d3c 5a8e c13d
000003b0: e7c8 0b3d 5d28 b3bd fe39 bf3d f333 e83c
000003c0: 70e3 ee3d da61 2dbd 7b1a 1bbe 2af1 11be
000003d0: d1ff b73d 25a2 f4bd def6 b8bd fbb2 37bd
000003e0: 4a5b aabd 0ba9 b8bc 7092 09be 36d1 f1bd
000003f0: ea19 273d 17a4 103d 7b13 25bd dfef 47bd
0.17847005 0.07382609 -0.04130394 0.09893292 0.104251914 0.100079045 0.052987862 0.046782892
-0.023440355 0.12306949 0.039611466 0.06264276 0.035798144 0.035125848 0.08120767 0.09590195
0.0059490865 0.033860914 0.07226501 0.17719491 0.26452893 0.18526962 0.08668555 0.23016845
0.34552914 -0.038958307 -0.049589522 -0.055164542 -0.017672602 0.04249965 0.0058612423 0.008880101
-0.044015072 0.015906552 0.0058138194 0.015275446 -0.034043375 0.02484557 -0.0028918297 0.05942031
-0.075703256 -0.0060854875 0.041924827 0.10409788 0.07122914 0.029032435 0.016106306 0.16236888
0.10629867 0.03805464 -0.051532038 -0.033069223 -0.029250812 -0.045608565 -0.024110274 -0.06690239
0.0013802947 -0.11655478 -0.0631619 -0.07058219 0.01964425 0.0007111357 -0.049898352 0.048877466
0.026339773 -0.07179187 -0.02142215 0.013092691 0.07166055 0.0057795397 -0.010312272 -0.10248757
0.0076397 0.011552628 0.037932254 -0.04165887 -0.0249568 -0.021579865 -0.003474529 0.0016803654
0.14495987 -0.010374229 0.022604251 0.032976825 0.06607478 0.04035007 0.09379766 0.05766913
0.051604066 -0.028198447 0.03714293 0.038252253 -0.045258675 0.058228258 0.04925568 -0.026509715
0.060852088 0.104031004 0.044810213 -0.0043885945 0.184885 0.08356245 0.10096068 0.0061661084
-0.033324018 -0.07279643 0.011364241 0.0035859973 -0.05267225 -0.059845824 0.03363704 -0.07344764
-0.06259424 0.035782393 -0.06361533 -0.009258983 -0.09476667 -0.038751394 0.039789233 -0.14192516
0.038490843 0.021636244 0.062138997 -0.030019939 -0.07506783 -0.011972838 -0.06538252 -0.10904627
-0.034572143 -0.12302137 -0.11775105 -0.05481987 -0.17872728 -0.09246817 -0.12601876 -0.1332429
-0.12386617 -0.08565078 -0.13667126 -0.17172793 -0.05305874 -0.114510864 -0.16915333 -0.09555112
-0.11758081 -0.15177995 -0.08493464 -0.19749773 -0.05373446 -0.12005266 -0.16380788 -0.07363441
0.039357968 0.16814575 0.056072675 -0.24015428 0.03282834 0.18635793 0.22313935 0.0844372
-0.17439146 0.04713883 0.12701555 0.02008799 0.13132837 0.009659624 -0.0034055903 -0.016234905
0.0517645 -0.027011277 -0.09616004 -0.04657642 0.056004725 -0.06434816 -0.0400096 0.22201435
0.15574987 0.39401433 0.1845818 -0.0021622037 0.14583811 0.103411615 0.13371322 0.15060332
0.10357455 0.027022611 0.16480301 -0.045086715 -0.05237742 0.12581596 -0.06951598 0.0646323
-0.19036756 -0.30373174 -0.12031622 -0.3194616 -0.25145718 -0.18395585 -0.20086876 -0.3732877
-0.053661615 0.039042056 0.083557695 -0.00986601 0.14347012 -0.086952485 -0.062487386 -0.04162824
0.11527316 0.035669513 -0.16012526 -0.098939255 -0.059022743 0.14698757 0.13155387 -0.07633005
0.10370226 -0.07718351 0.08925839 0.030519126 0.014861069 0.04600855 0.07792625 -0.12775217
-0.08561297 0.23278935 0.23655893 0.2177068 0.13775687 0.027392818 0.06893784 0.09864418
0.12854727 0.09172328 0.010571761 0.094509795 0.034127142 -0.08747933 0.09337233 0.028345084
0.11664474 -0.042329647 -0.1514682 -0.14252153 0.0898434 -0.11944989 -0.09031461 -0.044848423
-0.08318193 -0.022541543 -0.13434768 -0.11807482 0.040796198 0.03531274 -0.04030178 -0.048812743

conv2.bias f4 [16]
00000000: b53e e53e 82bc a0be f1b1 88bd 9a5b 97be
00000010: 2ec5 9b3c f701 74be c596 093f f1c5 0c3d
00000020: ccf8 103d f242 bc3d 001c b13d 324e 0abe
00000030: 3fa5 153f 065b 2cbf 4d6a cdbd 66f3 4b3e
0.44774404 -0.3139382 -0.06674565 -0.29562074 0.019014921 -0.23828875 0.5374568 0.03436846
0.03539352 0.09192456 0.08647919 -0.13506392 0.5845527 -0.6732639 -0.10030041 0.19917068

fc1.weight f4 [120, 400]
00000000: 11e2 35bd ef42 8b3c 19db ac3c 4654 6dbd
00000010: c45d bebb 12b4 3c3b c180 7ebd 9ad7 05bd
00000020: 37a1 53bd a8a0 a7bc f101 a8bc bb30 afbc
00000030: 7a86 34bd 9f03 97ba a3e2 cf3b 1883 b3bc
00000040: 76ad 1f3c 3be7 06bb d9a8 d0bc 4ec0 c9bb
00000050: bc3d 2fbb fff8 7bbd cd4a 26bd bb64 85bc
00000060: b742 0dba e61b 9f3b 567a 71bd 4646 873c
00000070: ac71 773c 81ac 3ebd 6b3e 763d 1759 373d
00000080: d102 b5bb 3145 6f3c 40f7 4d3d 74be 09bc
00000090: a3ff 743d 8609 0ebd 6840 1e3d 1cb5 95bc
000000a0: 7461 c23b f28e 913c 7e03 2b3c 2d92 31bd
000000b0: dba0 f8bc b0a0 383d fb4a 87bc c91c c03b
000000c0: 0791 513d 5652 943d 2cbd 3bbd e43b aabd
000000d0: 4579 a8bd 32b0 dcbc 4b0d 1d3d 3790 113d
000000e0: e399 df3c 5eda 283c b9f3 923c 7c84 3bbb
000000f0: 0ca5 5bbd 9946 93bc cc20 90bc 82ba 0a3d
00000100: cdf1 e7bc adbc 95bd 7495 c1bd cab9 c4bc
00000110: 8993 d63c a418 dbbc 9827 42bd d82a 0abd
00000120: b5dd 67bd 27ca 983d fe50 a23d 3216 44bc
00000130: f9a1 f93b 8204 45bd 7deb 8c3d 6e0a a83d
00000140: 893d 9d3c ceac d6bb fd01 193c 6fcb 863c
00000150: a9a7 823d b335 cf3b 5f07 2ebd f576 b2bb
00000160: 1c9a 973b a97d fd3c 0cd5 013c 3c0a 58bd
00000170: e8ef a9bc 2f80 a5b9 4898 3a3d b05f 5fbd
00000180: 0973 d5bc ce48 ee3c 9c5f 71bb a16f ac3c
00000190: c283 663c 7228 633c 7e1a ac3c e346 0e3d
000001a0: e0e7 a73a 9494 003d 731f d9bc fde0 043c
000001b0: 91c2 edbc 2d31 05bb 22de 21bd a32f 8a3c
000001c0: d87b 113d bf68 2abc 8cbf 07bd d977 d83c
000001d0: 8ffc 123d 1b30 2ebd 4faf 8ebd 3d4c 853c
000001e0: 67bb 2fbc 362f f5b9 ab75 c5b9 baa0 a93b
000001f0: c08e c03c 089a 763d 0ee8 223d 5386 893c
00000200: 0a8b 3e3d 3bc1 9c3d 7d62 033d 4c30 593d
00000210: 14e6 2ebc e7a9 50bc 6273 d63c 140d c23b
00000220: bed9 2abd 605d ccbc 09e2 82bc a9eb 7dbc
00000230: e040 06bc c248 83bd 7db5 8d3b b454 3cbd
00000240: 6035 593d 69a4 0a3c aa68 19bd a239 883a
00000250: c326 78bc a6c2 d03c f770 2fbc 5f65 1dbd
00000260: e0e3 f6bc 56b6 d4bc f1dc d63c 3723 db3c
00000270: 22ca 81bd 0671 0d3d 2568 6b3b d596 413c
00000280: f4bd 603d 4df9 083d 340b cdbc 09b7 4d3d
00000290: e185 86ba b9a3 d43b 6d05 d13c 011d 66bd
000002a0: 0748 0f3d 4ea5 353d bbd7 243d 7fd1 273d
000002b0: 9484 e03c d9f2 9139 6ab6 4d3d c277 663d
000002c0: 2528 85bd 9e71 57bd 29bd 4ebd 7748 903a
000002d0: f348 d93b 3839 3f3c e892 e4bc b6fb 23bc
000002e0: 3464 f73c b0e3 e2bc d8dd 973c 7175 eabc
000002f0: c9a1 e3bc ccfa 583c 7e59 053d 7a98 39bc
00000300: 0d54 233c 2258 4c3d 6c1a 233c 259c 54bd
00000310: 19d6 fa39 1155 403c 18f7 98bc c6bd 853d
00000320: 5969 0e3d a35d 3a3c 4e33 5a3c 6a9b 31bd
00000330: a83d b73c 8b3b d83c 0838 253c 664f dbbb
00000340: d49b d13c 3bd7 733c 25bd 0b3c f324 e1bc
00000350: 3942 543d 134c 54bd deeb 203c fcca 113d
00000360: c78e 133d 3b04 0c3a 608a cbbb 5dfc 1abd
00000370: b816 bbbc b5b2 fdbc a4f0 233d 140c bc3c
00000380: 2f25 483c 044b 78bc 2da0 24bc 4a77 0f3d
00000390: 2c66 a0bd 0379 b03b d32b 81bd f05f 27bd
000003a0: 2506 203d 60a9 b43c cedf d4bc 92d6 46bd
000003b0: 5747 27bd c30d 9d3c ede8 c33b e6e1 943c
000003c0: 8a50 d4bc 3203 8a3d 3370 6e3d b1ff 823d
000003d0: b673 133d 8c65 37bc c96d 40bd 1557 98bc
000003e0: 3e65 9a3c 29e1 3bbc f9f8 85bd 745d 0a3c
000003f0: c655 36bd 689d 76bd a4c6 4bbd 8d9a 4f3c
-0.044405047 0.01699969 0.021100568 -0.057941698 -0.0058095176 0.0028793854 -0.062134508 -0.032676317
-0.05166742 -0.020462349 -0.020508738 -0.021385541 -0.04407356 -0.0011521465 0.006344156 -0.021913096
0.009745946 -0.0020584601 -0.025471138 -0.0061569577 -0.0026739677 -0.061516758 -0.04059868 -0.016283384
-0.00053886644 0.0048556207 -0.05895456 0.016513001 0.015102785 -0.04655123 0.06011812 0.044762697
-0.0055240174 0.014603899 0.050284624 -0.008407224 0.059814107 -0.03467705 0.03863564 -0.018274836
0.0059320275 0.017768357 0.010437844 -0.043352295 -0.03035014 0.04507512 -0.016515246 0.0058628065
0.0511637 0.07242267 -0.045834705 -0.083122045 -0.08226255 -0.026939485 0.038342755 0.035537925
0.027295059 0.010305969 0.017938482 -0.0028612902 -0.053624198 -0.017978 -0.017593764 0.033869274
-0.028313542 -0.07311378 -0.09452334 -0.024014372 0.026193397 -0.026745148 -0.04740104 -0.033732265
-0.05660792 0.074604325 0.07925604 -0.011968182 0.0076181856 -0.048100002 0.06880853 0.08205114
0.019194381 -0.0065513616 0.009338853 0.016454427 0.06379635 0.00632354 -0.0424875 -0.0054463097
0.0046265256 0.030943708 0.0079243295 -0.052744135 -0.020744279 -0.00031566757 0.045555383 -0.054534614
-0.02605583 0.02908745 -0.003683067 0.021049323 0.014069499 0.013864623 0.021008726 0.03473557
0.0012810193 0.031391695 -0.026504254 0.008110282 -0.02902344 -0.00203235 -0.039518483 0.016868418
0.035518497 -0.01040095 -0.033141658 0.026424335 0.03588539 -0.042526346 -0.06967031 0.016271705
-0.010725833 -0.00046765216 -0.00037662438 0.005176631 0.023505569 0.06020549 0.039772086 0.016787684
0.046519317 0.07654043 0.032076348 0.053024575 -0.010674972 -0.01273582 0.026178066 0.005921969
-0.04171156 -0.024946868 -0.015976923 -0.01549808 -0.008194178 -0.06410362 0.0043246136 -0.045979217
0.053029418 0.00846205 -0.03745333 0.0010393152 -0.01514596 0.02548344 -0.010708085 -0.038426753
-0.030137956 -0.02596585 0.0262284 0.02675019 -0.06337382 0.034531616 0.003592023 0.011815746
0.054868653 0.033440877 -0.025029756 0.050223384 -0.0010263288 0.006489244 0.025515283 -0.056180004
0.0349808 0.0443471 0.0402448 0.040971275 0.027406968 0.0002783749 0.05022279 0.056266554
-0.065017976 -0.05259859 -0.050473366 0.0011007924 0.0066310107 0.011671357 -0.027902082 -0.010008743
0.030199148 -0.02769646 0.0185384 -0.028620454 -0.027787106 0.013243388 0.03255605 -0.011327857
0.00996877 0.049888737 0.00995503 -0.051906724 0.0004784323 0.011739031 -0.018672511 0.06530337
0.034768436 0.011374864 0.013317896 -0.043361105 0.022368267 0.02639558 0.01008416 -0.0066928146
0.025587 0.014882858 0.008528982 -0.02748344 0.051820967 -0.051830363 0.00982186 0.03559397
0.036024835 0.00053412066 -0.006211564 -0.03783833 -0.022837982 -0.030969003 0.040024415 0.022954978
0.0122158965 -0.015154604 -0.0100479545 0.035025872 -0.07831988 0.0053855195 -0.06307187 -0.040862978
0.03906836 0.02205342 -0.025985625 -0.048544474 -0.04083952 0.019171601 0.0059786947 0.018174123
-0.02591731 0.06738891 0.05821247 0.063964255 0.035999022 -0.011193644 -0.0469797 -0.018596211
0.018847104 -0.011467257 -0.065416284 0.0084451325 -0.044515394 -0.060208708 -0.049749985 0.012671125

fc1.bias f4 [120]
00000000: dfd7 b03c f6c5 d53c bf87 57bc da11 68bc
00000010: 6311 f03d b843 093d 4359 5d3b 6ca7 1f3e
00000020: 5244 193d d0b5 643d a080 cabd 993d ecbd
00000030: 4172 443d df3a cfbc 148b 06bd a387 903d
00000040: 5123 e9bb 67b6 3c3d 61f5 643d f83b 793e
00000050: e018 bfbd 89ed 2a3d 5abf bdbb 1a49 783a
00000060: 4507 d83c f388 d73b 81f3 993d 9936 2dbd
00000070: 5d80 84bd d4b9 e93d d78b 023b d571 6e3c
00000080: b002 10bd a717 c73d 11ba 12bd 5d47 023d
00000090: c1c9 1c3d ff36 743c b4c5 f7bc e9f8 f4bc
000000a0: d885 a13d 6250 31bd eb05 a8bd 2c2f 0ebc
000000b0: aade d0bc d1eb a6bd b40d 9b3d 4bec 903d
000000c0: 626f 443b 3fab 0bbd 139f debc 5f13 c5bc
000000d0: 5c24 9abd dda2 66bd 0d51 f63d 4840 07be
000000e0: d8e4 3c3e 1d60 f83c 3f78 4f3d df93 833d
000000f0: a8bb 91bc 6b80 e63b e051 333d 6a18 b1bc
00000100: d2e7 1c3d 3b81 1f3d b6ae 683d c742 12bd
00000110: 6e22 0b3d 2056 dabd 72c1 123d 11e0 7ebd
00000120: e98b 293d 2178 f5bd 8da7 2a3d 0afa ae3c
00000130: 9a82 c03d 48d7 f6bd a6af 523e 9e65 2a3d
00000140: 3516 573d 78e8 0b3e 169c 3f3d b806 11bd
00000150: 792d d63c ca8b 73bb 9c4b 913d ad08 a03d
00000160: e0b3 be3c 339a 013d f4fc 13bd 581f 9cbb
00000170: a18b a0bd 2107 f63c 9b66 b2bc 4f40 683b
00000180: 04b6 c33d b5e7 bf3b f038 fd3c 90ea a8bc
00000190: b60f a83c 190c 7a3d c5d1 8f3d 4689 06bd
000001a0: 4aa1 b63c 6be4 51bd 8ad9 8cbc bbd6 07bd
000001b0: 75ff 843d 1a9d 98bd 5b93 153d 8c0b 2ebd
000001c0: f4a4 03bd 5fff 0c3e 1e77 05bd 10f9 51bd
000001d0: f45b a6bd 58ba 0cbd fc50 f73d 9cf4 ba3b
0.02158731 0.026095372 -0.013154923 -0.014164412 0.11722066 0.033511847 0.0033775128 0.1559121
0.03741867 0.055837452 -0.098878145 -0.11535186 0.047960524 -0.025296627 -0.03284748 0.07057121
-0.0071148057 0.04607239 0.055898074 0.24339283 -0.093309164 0.041730437 -0.005790633 0.0009471342
0.026370654 0.006577605 0.07517148 -0.042288397 -0.06469796 0.11412397 0.0019919777 0.014553507
-0.035158813 0.09721308 -0.035821978 0.03180634 0.038278345 0.01490569 -0.03024564 -0.029903846
0.07886857 -0.04328955 -0.08204254 -0.008678239 -0.0254968 -0.08150447 0.07570973 0.07076319
0.0029973616 -0.03409886 -0.027175462 -0.024057088 -0.07526466 -0.056307662 0.12027178 -0.13208115
0.18446672 0.030319268 0.050651785 0.064246885 -0.017789677 0.0070343516 0.043779254 -0.021618087
0.03830702 0.038941603 0.056807242 -0.035708215 0.03396838 -0.10660958 0.035829015 -0.062225405
0.041393194 -0.119858034 0.041663695 0.021359462 0.0939991 -0.120527804 0.20574817 0.041600816
0.052511413 0.13662899 0.046779715 -0.035406798 0.02614473 -0.0037162178 0.070944995 0.07814155
0.02327913 0.031641196 -0.036129907 -0.0047644787 -0.07839132 0.030032696 -0.021777442 0.0035438722
0.09556201 0.005856479 0.030910939 -0.02061966 0.020515304 0.061046693 0.07022432 -0.032845758
0.022293705 -0.051243227 -0.017193574 -0.033163767 0.06494037 -0.0745184 0.036517482 -0.04249148
-0.032139733 0.13769291 -0.032584302 -0.051262915 -0.081230074 -0.0343574 0.120759934 0.0057054292

fc2.weight f4 [84, 120]
00000000: 3bfb 48bc 4931 6abd c5bb 86bd 6db8 023b
00000010: 7b26 85bc 4490 87bd 8815 e0bd 93af 02be
00000020: a610 2d3d aca4 87bd af04 853b 8792 443d
00000030: 093c 9d3d 6d2f c83c e32b 433b bab2 803d
00000040: b0ca 9c3d 27b5 a53c 0ed1 d23d 0c84 5d3d
00000050: c6b3 bdbd 49b3 92bd 1c59 f0bc ac76 84bd
00000060: a3a3 be3d d7e2 f23d c0f3 85bd ee6a 163d
00000070: 11cb c53c 5b34 acbd e6fd 7b3d 5b74 d4bd
00000080: 70b2 f13d 445c 62bc 5455 713d 6961 a03d
00000090: 81b1 0e3d a446 5ebc c1e4 c43d 98be 203e
000000a0: 76c5 363d acaf 2dbb fa50 4e3c 60d0 e1bc
000000b0: 75c5 3a3d fc5d 87bd 7b7a 593c 75aa 95ba
000000c0: 4d00 8f3c 2d8b 813d 98fe 863d 72ba 883d
000000d0: 46df af3d cf17 7a3c 6d9e bebd 6b9f 73bd
000000e0: efc1 5bbe 5703 d7bb 53c8 aa3c ea20 d0bd
000000f0: 3206 2bbc 2968 37bc dd1c fa3d c0fb 05be
00000100: 6eb9 25be 11ad 1b3c e99b 543c 6661 833d
00000110: b02b b9bc 3c32 11bd 5892 c8bd e52f 72bd
00000120: b206 343c 9ebe 9c3c c948 363d db36 a43d
00000130: 7137 99bd cb32 f23c 8e76 2cbd 77c2 5dbc
00000140: 6728 7e3d dec7 c8bd b017 c23d 1cc4 a5bd
00000150: 8793 b13d 0f23 383c f8db 653d 3717 7e3c
00000160: 091e b3bd af8d b43d ed7f c0ba afa2 7e3d
00000170: b6a9 9c3c c8b4 3438 8351 f13d 763a fc3c
00000180: 47e5 283d ffec fd3c 1edc 81bd 637a 0abd
00000190: 8234 343d f16d 2bbe a928 ffba d116 873d
000001a0: d042 e9bd a38a 37bd b551 753d 6683 683c
000001b0: c939 103e 1fee f93d 5e6b d33a 23e3 d3bc
000001c0: ca3f bbbd 3c99 823d 8b5c 1a3e 526b 4bbb
000001d0: 1cd8 453c 672f 233e 3b47 dcbd 620f 7b3c
000001e0: b335 7a3d 0516 77bd 6df5 553d 3d45 493d
000001f0: a5b7 7e3b 9382 ccbc 539b af3d f968 753d
00000200: 178f c6bc f540 be3d 6bd6 b03d b654 02bd
00000210: 06ab 353c 49a7 813d cae4 e0bd dc66 9bbd
00000220: dec6 cbbd 8887 e03d cfeb a4bb 22d8 60bd
00000230: 93ba 9b3d f025 c83d 599f 29bd a83e 02bd
00000240: e200 81bd e25d b6bd 61de 82bd 58b8 3f3b
00000250: b6b2 d43d 3804 2d3d 873f 5b3d 8823 a43d
00000260: a89a 993d edfe 95bd 5f76 b3bd fc93 f23d
00000270: 5634 80bd b5eb 27bd bd1d d33d b13e 353b
00000280: a995 08bd 2655 e2bc 0030 91bd 25e9 623d
00000290: 3034 a0bc 1338 6fbd 7e58 bebc a68d 2b3c
000002a0: f2fa 603d 9cc0 a9bd dddf 4dbd 720f 26bc
000002b0: 61a5 d7bc 5915 e9bd 1667 7ebd 919f 55bc
000002c0: 0de7 c43d e2e1 1abd b068 7c3d 14bf 9b3d
000002d0: 0704 3a3c 3517 b1bc 6deb 083c f549 2a3d
000002e0: cc94 1d3d a2e5 cb3d f1bd 7dbc 22be b23d
000002f0: 4b81 853d 4672 39bd 2764 98bd 69e4 9e3d
00000300: 1c4a 15bd e2b2 b8bd 3f13 5abd fc0d f6bd
00000310: eebc 893d 9518 20bc dbd6 d1bd 309e 3fbd
00000320: cc0e c23d f4b6 103d cd1f 3c3d 39e1 a43d
00000330: 4470 83b9 fba4 9fbc 37e8 8f3d 222c e93c
00000340: 17e6 b83d a00a 833b 0aff 8e3c 0c51 533d
00000350: 7310 44bd 78a9 01bc cbb1 083c b072 82bd
00000360: f450 873d a57d 2abd 2ac6 e6bc b977 d63c
00000370: 217a 56b9 e7d4 c13d 0fe5 c93d 509f 633d
00000380: 1cf9 44bd 97ab 5d3d 2987 13bd 8548 f83d
00000390: 4fbf 93bd 1fc4 0dbd b393 bebb 31f8 b5bc
000003a0: 8fd5 883b 01e3 a53d 5d1e d13c dc13 a5bd
000003b0: 4e31 dabd 50b7 2c3d 7b0a 1f3c d768 4f3c
000003c0: d7bb a53d 1a8a 4d3d df45 a73c 00ac a8bd
000003d0: 7f45 4e3d 00b5 cebd c146 d7bd 4035 adbd
000003e0: 83ae 903d 4ab6 5d3d 062e 3e3d 539a 9abd
000003f0: ad22 883d f351 62bc 6ef4 033e d72c 073d
-0.012266929 -0.05717591 -0.06578783 0.0019946352 -0.0162537 -0.06619313 -0.10941607 -0.12762289
0.042252205 -0.066232055 0.004059396 0.047991302 0.076774664 0.024436677 0.0029780797 0.062840894
0.07655847 0.020227982 0.1029378 0.054081008 -0.09262805 -0.07163102 -0.029339366 -0.06467947
0.09308555 0.118596725 -0.06540632 0.03672307 0.024144681 -0.084084235 0.061521433 -0.103737555
0.118016124 -0.013815943 0.058919266 0.078310795 0.03483725 -0.013566647 0.09613944 0.15697706
0.044621907 -0.0026502414 0.0125925485 -0.027565181 0.045598466 -0.06609723 0.0132738305 -0.0011418598
0.017456198 0.06325374 0.06591529 0.066761866 0.08587508 0.0152644655 -0.09307561 -0.059478205
-0.21460699 -0.0065616774 0.020847475 -0.10162528 -0.010438489 -0.011194267 0.122125365 -0.13084316
-0.16184017 0.009501711 0.012976625 0.06415062 -0.02260384 -0.035448298 -0.09793538 -0.059127707
0.010987924 0.019133862 0.044503007 0.08018275 -0.07481278 0.029565236 -0.04210525 -0.013535134
0.06205025 -0.09803747 0.09477174 -0.080940455 0.08670717 0.011238827 0.05611798 0.015508465
-0.08745963 0.088160865 -0.0014686562 0.062166866 0.019123893 4.308371e-05 0.11783125 0.030789595
0.04123428 0.030996798 -0.06340812 -0.033808123 0.043995388 -0.16741158 -0.0019467074 0.06596149
-0.113896966 -0.04480995 0.059892375 0.014191484 0.14084543 0.12203621 0.001613002 -0.025865143
-0.09143026 0.063768834 0.15074365 -0.003103931 0.01207545 0.15936051 -0.10755774 0.015323492
0.061086368 -0.060323734 0.05223601 0.049138296 0.0038866785 -0.024964606 0.085745476 0.059914563
-0.024238152 0.09289733 0.08634647 -0.031819068 0.011088138 0.06330735 -0.10981138 -0.07587978
-0.0995004 0.109633505 -0.0050329934 -0.05489362 0.076039456 0.09772861 -0.04141173 -0.031798035
-0.062989965 -0.089046255 -0.06390072 0.0029254165 0.10385649 0.04224035 0.05352738 0.080145895
0.075002015 -0.07324014 -0.08762812 0.11844632 -0.06259982 -0.040996272 0.103084065 0.0027655775
-0.033345852 -0.027628493 -0.070892334 0.055398125 -0.019556135 -0.058403086 -0.023235556 0.010470783
0.05492682 -0.082886904 -0.05026232 -0.010135518 -0.026323976 -0.11381025 -0.06211003 -0.013038532
0.09614382 -0.037813075 0.061623275 0.07604805 0.011353499 -0.021617511 0.008356911 0.041574437
0.038471982 0.09955908 -0.01548718 0.08727671 0.06518801 -0.045274995 -0.074409775 0.077584095
-0.03644763 -0.09018494 -0.05324101 -0.12014386 0.067254886 -0.009771486 -0.102460586 -0.04678172
0.094754785 0.035330728 0.045928765 0.0805077 -0.00025069911 -0.019487849 0.07026713 0.028463427
0.09028261 0.0039990693 0.017455596 0.051590964 -0.04786725 -0.00791394 0.00834317 -0.06369531
0.066072375 -0.04162373 -0.028170664 0.026180135 -0.00020454127 0.09464436 0.098581426 0.055571854
-0.04808913 0.05411872 -0.03601757 0.12123207 -0.072142236 -0.034610864 -0.005815947 -0.022213073
0.004175849 0.08099938 0.025527174 -0.080604285 -0.106539354 0.042167008 0.009707089 0.012659273
0.08092468 0.050180532 0.02041906 -0.082359314 0.050359245 -0.10093117 -0.10511542 -0.08457422
0.070645355 0.054128923 0.04643061 -0.07548966 0.06647239 -0.0138134835 0.12886211 0.033001747

fc2.bias f4 [84]
00000000: 9ae6 933d aecc 69bd 769e ad3c c4fb e8bd
00000010: e085 acbd efba 823d 491f 943c 764c 1e3e
00000020: dd71 133e 9127 ae3e e10e 8cbd e19e 9dbd
00000030: 9add c2bd a9fd 1cbe e414 9c3e aeae 703e
00000040: 8d20 d7bc 82fa 953c b7db aabd 3900 1a3e
00000050: cdc8 8d3e 31c0 50bd 6901 113d e7cb f83d
00000060: e89b 3dbd 7926 a1bc 086a 923e a894 193e
00000070: c639 8abd 5ef6 b8bd 8c80 26bd b6a1 193e
00000080: 4e4f b13d 348b c83d e9a4 443c 3968 443d
00000090: 12c3 1ebe 6814 b7bd 67a3 a33c 3f9b 0bbd
000000a0: a734 643c 1bfd 2b3d aff8 ddbc ed17 9cbd
000000b0: 6e75 b23c 24f3 60bd 087a c73d ad0b 6e3e
000000c0: 5163 7c3d 26a0 633d b122 603c c7d2 45bd
000000d0: 262b aabd a4c6 55bd 9d21 a43d 625c e5bc
000000e0: 7ebc c33c abc7 0fbe 7bc0 8abc cb65 373e
000000f0: b7e2 b43d 82c4 fc3d f204 2cbd ca04 7ebd
00000100: eaf5 053d 6b0f 89bd 8b9f 4ebd 38e6 59bd
00000110: a214 49bd 845b 11bd 442f 8abc 51fb 0bbc
00000120: addf 3b3e 9888 71bd 07c8 a63d e019 87bd
00000130: de44 b0bc 3b52 833d 15bc b1bd d86a 823d
00000140: 717f 923c 596d 2c3d 4b96 063e 598f 34be
0.07221718 -0.057079963 0.021193724 -0.113761455 -0.08423972 0.06383311 0.018081324 0.15458855
0.14398904 0.34014562 -0.068387754 -0.07696319 -0.095149234 -0.15331139 0.30484688 0.23504135
-0.026260639 0.018307928 -0.083426885 0.15039147 0.2769226 -0.050964538 0.035401735 0.12148266
-0.046291262 -0.019671666 0.2859652 0.14998114 -0.06749301 -0.09031366 -0.040649936 0.15003094
0.08657704 0.09792176 0.012002208 0.047950957 -0.15504101 -0.08939439 0.019975377 -0.0340836
0.013928569 0.041989427 -0.02709612 -0.07621751 0.02178451 -0.054919377 0.097400725 0.23246641
0.061618153 0.05557265 0.013680146 -0.048296716 -0.08309011 -0.05219139 0.08014224 -0.027998153
0.023893591 -0.14041011 -0.016937485 0.17909925 0.08832305 0.123421684 -0.041996904 -0.062016286
0.032705225 -0.06692394 -0.05044512 -0.05319807 -0.049091943 -0.035487667 -0.016868241 -0.008543805
0.18347044 -0.058968157 0.08143621 -0.06596732 -0.021517213 0.064121686 -0.08678452 0.06368035
0.017883034 0.04209647 0.1314327 -0.17632808

fc3.weight f4 [10, 84]
00000000: 92c5 babd e74b 8cbe 858b 733e 4f8d e83d
00000010: 6a53 0ebd 03ef 53bc 5c80 013c 415b 8fbc
00000020: 5478 24be 4777 1abe 0dd8 f3bd 082a 58bc
00000030: 3f84 073d 3313 95be 9e8a 72bc 14f5 313a
00000040: c2bf 5abd 1e2f 33bd 14b2 bb37 5164 c33e
00000050: 39de 343e 1d0a cebc 2967 91bd 48e6 a93d
00000060: c997 ad3d 5a50 85be 6dbe 4abe 584e b5bd
00000070: 21c4 b33e e7e8 7a3e 8120 533c 2404 1fbe
00000080: f612 25be 2f81 84bd e15d adbd bf1e 333e
00000090: dcc9 89be 189b 26be d6ac 10be 394b 25bd
000000a0: b5b6 043e 06f8 e73d b2a0 933e 0f8b 16bd
000000b0: 30e0 ab3e 0f97 c2bc cbe8 4e3e a2bf f83c
000000c0: e4a2 bf3e a173 313b d804 96bd daa7 203e
000000d0: f7c1 863d bb67 993d 611f 823b 8075 333e
000000e0: 534c 713e ecf3 c4bd 6816 a4bd 2b72 1cbe
000000f0: f152 133e e734 0bbd c462 a4bd 6f40 4a3e
00000100: df98 0cbe e17f e73d 1558 603c 1bcc 6cbe
00000110: af96 343e 53af 1fbe b138 1e3d b20a b2bd
00000120: 9a7c 8cbe 6688 233e 07b1 d93d 8b60 f93d
00000130: 69d9 893e 436e 313d 750a 3cbe f3bb d43d
00000140: 237d cc3a 346e 9ebd a8d5 233e e490 213d
00000150: 3fd5 633e 4e89 4a3c d7c3 0f3e a404 773c
00000160: 2056 90bd 8f98 493e 72bb a2bd 59aa 6bbe
00000170: f497 77bd 38c6 4c3d b4bb 793e 6c90 af3e
00000180: 616c bc3d b193 87bb 48ba debd 09a5 7dbe
00000190: 2b7d e23c af45 e53d b63f 133e d1d9 4dbe
000001a0: 1deb 83be 8900 bebc 5145 93be dd0c 4d3c
000001b0: 1733 c2bd 0210 1e3c 43b5 45be 2aed d2bc
000001c0: a779 733e 9e8a 5ebe 5aa9 96bd 918f 27be
000001d0: 5375 f33c c894 c73d a18f 393e 8c0a 553c
000001e0: 3e27 2d3e b8b9 abbd 608b abbe d9ca 383e
000001f0: 66aa 32bc 725a 95be 23cf f2bd 951e 853e
00000200: 1348 3ebe e6db ed3c b278 86be e0f3 98bd
00000210: 9524 22be a316 d73d a283 b3bd d95a 723e
00000220: b2f2 ab3d 313b 963e ab4f 51bd ad72 afbc
00000230: ac81 0bbe 7d83 803e ce6e e2ba 5f3f 6ebe
00000240: f98b 95be 680c f53d f1cf 453c 0222 30be
00000250: 28cc 3f3e acac aebd 4af8 30bd d902 da3d
00000260: 65d7 a03d baef f13d 70c9 0fbe 68cd 94bd
00000270: c36a 99be b5fb 5bbb 423a 9f3c 30bc 1f3e
00000280: 4393 8ebd 16c1 4fbd 24b9 b23d 35f9 ba3e
00000290: e861 b93d df14 24be 84dc 3d3e 957d b53d
000002a0: 0907 24bd 501c 0d3e d8f8 a3be c63f 8abe
000002b0: fba1 913c 91bb 10be 07d2 81bd 3281 033f
000002c0: d4b7 bbbe 1c75 cb3d f151 0abd a81d 50ba
000002d0: 364f bebd 10d4 3abb 5f64 873e 19d2 0a3e
000002e0: e9ed 643d 5fec c3bd e61d f1bc 47e3 19be
000002f0: 8771 3c3d d0d0 debd ec78 943d 4ba4 953e
00000300: adbc 433e c972 34be e4c7 9a3e b521 43bc
00000310: 5363 1a3e 371a 923d a35c 35bc 659e 973d
00000320: 4fd4 c6ba be82 bfbd 0f9b 4cbe 608f b33d
00000330: eabe 5a3e a1ec f93d 104f e2bd b723 52bd
00000340: 887a b83d 9c26 a63e f97f 093e 900e c5bd
00000350: 704c ae3e c49b bb3d 1aa6 1e3e 7c85 1b3e
00000360: baa7 85be e53c 96bd 77da 26be 14fc 1dbe
00000370: 2df0 9cbd 62fa 9cbd 91de f03d 1f4d 24be
00000380: 55a7 2e3e 9c5e b63d dfa0 703d 8c45 773d
00000390: 1828 aabd 4a8c 2f3e 7a18 b33d 053b 713e
000003a0: f322 40bd cf80 bfbc 49ec 8f3d 308f 4dbe
000003b0: 04be 0e3e 89b4 36be e4f7 253d bdb6 33be
000003c0: dc84 133e e9ce 393d ba75 943d 6668 f83c
000003d0: 0fc1 903d e3d3 dbbd 2721 a4bc e4e6 923e
000003e0: d4bd db3c 4ff4 c43d a607 5cbe 672b fb3d
000003f0: a919 363e ceba a73d 487c 2bbd 5b76 a4bd
-0.09119715 -0.2740166 0.23783691 0.113550775 -0.03474752 -0.012935403 0.007904138 -0.017499568
-0.16061527 -0.15084563 -0.11906443 -0.013193615 0.033085104 -0.2911621 -0.014803557 0.00067885336
-0.05340553 -0.043746106 2.2375061e-05 0.38162473 0.17662896 -0.025151307 -0.07099754 0.08295876
0.08476216 -0.26037866 -0.19799204 -0.088528335 0.35110572 0.24502908 0.0128861675 -0.15528923
-0.16120514 -0.06469952 -0.084651716 0.17492197 -0.2691182 -0.16270101 -0.14128432 -0.04035494
0.12960322 0.113266036 0.28833538 -0.03675371 0.3356948 -0.023753671 0.20205991 0.030364815
0.37428963 0.0027076977 -0.073251426 0.1568903 0.065799646 0.07490488 0.003971026 0.17525291
0.23564272 -0.09616837 -0.08012086 -0.15277927 0.14387108 -0.033986 -0.080266505 0.19751142
-0.1373019 0.11303688 0.013692875 -0.23124735 0.17635606 -0.15594225 0.038628284 -0.08693446
-0.27438813 0.1597 0.106294684 0.12176617 0.26923683 0.043318044 -0.18363364 0.10387411
0.0015601258 -0.07735863 0.15999472 0.03944482 0.22249316 0.012361838 0.1403955 0.01507679
-0.07047677 0.19687103 -0.079459086 -0.23014201 -0.06044765 0.049993724 0.2438801 0.34289873
0.09200359 -0.0041374792 -0.10875374 -0.24769987 0.027647575 0.11194932 0.14379773 -0.20102622
-0.25765315 -0.023193615 -0.28763822 0.012515274 -0.09482401 0.009647371 -0.19307427 -0.025747854
0.23776875 -0.21732566 -0.0735652 -0.1636336 0.02971903 0.09745175 0.18121196 0.013003003
0.16909501 -0.083850324 -0.33504772 0.1804613 -0.010904884 -0.29170567 -0.118559144 0.25999895
-0.18582182 0.02903552 -0.26263958 -0.074683905 -0.15834267 0.105023645 -0.08765341 0.23667468
0.083959 0.29342034 -0.051101368 -0.021416986 -0.13623685 0.25100318 -0.0017275454 -0.23266362
-0.29208353 0.11965257 0.012073503 -0.17200473 0.18730223 -0.08529028 -0.043205537 0.106450744
0.07853583 0.11813302 -0.14041686 -0.07265741 -0.29964265 -0.0033566777 0.01943696 0.15599132
-0.06961682 -0.05072125 0.08726719 0.36518255 0.09051877 -0.16023587 0.18541151 0.088618435
-0.04004577 0.13780332 -0.3202579 -0.2700178 0.017777434 -0.14134051 -0.06338888 0.5136901
-0.36663687 0.09934446 -0.03376955 -0.00079389894 -0.09292452 -0.0028507747 0.26443765 0.13556708
0.05589095 -0.095665686 -0.029433202 -0.15028106 0.046006706 -0.108796716 0.072496265 0.29226908
0.19114943 -0.17621912 0.3023063 -0.011909892 0.15076952 0.07133906 -0.01106945 0.07403258
-0.0015169474 -0.09351109 -0.19981025 0.08767581 0.2136189 0.122033365 -0.11050236 -0.05130359
0.09007746 0.32451332 0.13427724 -0.09621918 0.34042692 0.09160569 0.1549305 0.15187639
-0.26104528 -0.073358335 -0.16294275 -0.15428191 -0.076629974 -0.07664944 0.11761201 -0.16045044
0.1705602 0.08904764 0.05874717 0.06036906 -0.083084285 0.1714336 0.08744903 0.2355767
-0.04690833 -0.02337685 0.0702749 -0.20074153 0.13939673 -0.17842306 0.04051961 -0.17550178
0.1440615 0.04536334 0.07249017 0.030323219 0.07068073 -0.107337736 -0.02003534 0.2869178
0.026823916 0.09616911 -0.21487293 0.12264138 0.17783226 0.08189927 -0.04186657 -0.08030387

fc3.bias f4 [10]
00000000: a6de 99be 8d25 2abe 2d6c 803d 0cba af3d
00000010: fc2d 153f f8cd 72be 84d8 9b3e 2ad9 e0bd
00000020: 5d69 103e e48c a5be
-0.3005268 -0.16615887 0.06270633 0.085804075 0.5827329 -0.23711383 0.30438626 -0.10978921
0.14102693 -0.32334054
